…
Tensor (S)Tensor (S)L x
X:N×d I1=XWgate:N×I I2=XWup:N×I O:N×dX:N×d Logit=XWlmhead:N×V Loss: N×1 LM head 
 MLP 
IntermediateIntermediate

Hình 4: Kiến trúc Transformer tiêu chuẩn với việc làm nổi bật LM-head và MLP.

Hình 4 minh họa kiến trúc của mô hình Transformer tiêu chuẩn, tập trung vào các thành phần MLP và LM-head. Các tensor trung gian (I1, I2) có kích thước lớn hơn đầu vào và đầu ra. Ngoài ra, tensor logit có kích thước từ vựng (V) lớn hơn nhiều so với kích thước ẩn (d).

Hình 5: Kiến trúc mô hình của triển khai HuggingFace của Llama2-7B

LlamaForCausalLM(
(model): LlamaModel(
(embed_tokens): Embedding(32000, 4096)
(layers): ModuleList(
(0-31): 32 x LlamaDecoderLayer(
(self_attn): LlamaFlashAttention2(
(q_proj): Linear(in_features=4096, out_features=4096, bias=False)
(k_proj): Linear(in_features=4096, out_features=4096, bias=False)
(v_proj): Linear(in_features=4096, out_features=4096, bias=False)
(o_proj): Linear(in_features=4096, out_features=4096, bias=False)
(rotary_emb): LlamaRotaryEmbedding()
)
(mlp): LlamaMLP(
(gate_proj): Linear(in_features=4096, out_features=11008, bias=False)
(up_proj): Linear(in_features=4096, out_features=11008, bias=False)
(down_proj): Linear(in_features=11008, out_features=4096, bias=False)
(act_fn): SiLU()
)
(input_layernorm): LlamaRMSNorm((4096,), eps=1e-05)
(post_attention_layernorm): LlamaRMSNorm((4096,), eps=1e-05)
)
)
(norm): LlamaRMSNorm((4096,), eps=1e-05)
(rotary_emb): LlamaRotaryEmbedding()
)
(lm_head): Linear(in_features=4096, out_features=32000, bias=False)
)

Kiến trúc mô hình Llama2-7B: Như được hiển thị trong Hình 5, mô hình Llama2-7B sử dụng cấu hình khối MLP với các đặc điểm sau:
• Khối MLP: Lớp tuyến tính đầu tiên chiếu đầu vào từ kích thước ẩn 4096 lên kích thước trung gian 11008. Lớp tuyến tính thứ hai chiếu biểu diễn trung gian từ 11008 về 4096, kích thước ẩn.
• LM-Head (Chiếu đầu ra với Loss tuyến tính): LM-Head trong Llama2-7B bao gồm một lớp tuyến tính chiếu biểu diễn ẩn từ kích thước 4096 lên kích thước từ vựng 32000. Đầu ra của lớp tuyến tính sau đó được truyền qua hàm cross-entropy loss để tính toán loss huấn luyện.

Hình 6: Kiến trúc mô hình của triển khai HuggingFace của Llama3-8B.

LlamaForCausalLM(
(model): LlamaModel(
(embed_tokens): Embedding(128256, 4096)
(layers): ModuleList(
(0-31): 32 x LlamaDecoderLayer(
(self_attn): LlamaFlashAttention2(
(q_proj): Linear(in_features=4096, out_features=4096, bias=False)
(k_proj): Linear(in_features=4096, out_features=1024, bias=False)
(v_proj): Linear(in_features=4096, out_features=1024, bias=False)
(o_proj): Linear(in_features=4096, out_features=4096, bias=False)
(rotary_emb): LlamaRotaryEmbedding()
)
(mlp): LlamaMLP(
(gate_proj): Linear(in_features=4096, out_features=14336, bias=False)
(up_proj): Linear(in_features=4096, out_features=14336, bias=False)
(down_proj): Linear(in_features=14336, out_features=4096, bias=False)
(act_fn): SiLU()
)
(input_layernorm): LlamaRMSNorm((4096,), eps=1e-05)
(post_attention_layernorm): LlamaRMSNorm((4096,), eps=1e-05)
)
)
(norm): LlamaRMSNorm((4096,), eps=1e-05)
(rotary_emb): LlamaRotaryEmbedding()
)
(lm_head): Linear(in_features=4096, out_features=128256, bias=False)
)

Kiến trúc mô hình Llama3-8B: Như được hiển thị trong Hình 6, mô hình Llama3-8B sử dụng cấu hình khối MLP với các đặc điểm sau:
• Khối MLP: Lớp tuyến tính đầu tiên chiếu đầu vào từ kích thước ẩn 4096 lên kích thước trung gian lớn hơn là 13824. Lớp tuyến tính thứ hai sau đó chiếu biểu diễn trung gian từ kích thước 13824 trở lại kích thước ẩn 4096.
…
